examples/saved_trained_classification_pytorch.onnx (onnx, 324390 bytes, 8 tensors)

layer_1.bias f4 [512]
0	0xbe3f9eb5	-0.18712886
1	0xbe4c53b7	-0.1995381
2	0xbe7f72c4	-0.24946123
3	0x3e0b1a19	0.13584174
4	0xbe83975b	-0.25701413
5	0x3da14872	0.07875146
6	0x3de6f2e3	0.11276796
7	0x3e2bd2e4	0.16779667
8	0x3e2c3a6f	0.16819166
9	0x3e78541e	0.24250838
10	0xbe6eef72	-0.23333529
11	0x3e0f983a	0.14022914
12	0xbe15f31e	-0.14643523
13	0xb8ad0a9e	-8.2512604e-05
14	0x398e71cc	0.00027169136
15	0xbe8233f9	-0.25430277
16	0x3e19a765	0.15005262
17	0xbddffcf8	-0.10936922
18	0xbd8fedd6	-0.070277855
19	0xbe6426c1	-0.22280408
20	0xbd9b38b1	-0.075791724
21	0xbe42574b	-0.18978612
22	0x3e8ea17d	0.2785758
23	0xbe2ca512	-0.16859844
24	0xbe81ed29	-0.2537625
25	0x3dd44811	0.10365308
26	0xbe8e0d59	-0.27744558
27	0x3e56bec2	0.20971206
28	0xbd00997d	-0.031396378
29	0x3d68e35a	0.056857444
30	0xbec3f67f	-0.38274
31	0xbe6cf1dd	-0.23139139
32	0x3e364647	0.17800246
33	0xbe2f498b	-0.17117898
34	0x3e4de63f	0.20107363
35	0x3ddb3b04	0.10704616
36	0xbe940007	-0.2890627
37	0xbe5d816c	-0.21631402
38	0x3cfb25a7	0.030657602
39	0x3e36f598	0.17867124
40	0x3dd0c395	0.10193554
41	0x3dcdac85	0.10042671
42	0xbeaa1c41	-0.3322468
43	0xbdf4f600	-0.11960983
44	0x3e32709f	0.17425774
45	0xbc53c882	-0.012926223
46	0xbe1a0786	-0.15041932
47	0x3e8474a7	0.2587025
48	0xbe7e596e	-0.24838802
49	0x3d461b5a	0.04836593
50	0xbe8da08e	-0.27661556
51	0xbe3cb8f1	-0.18429925
52	0x3cc5bab1	0.024136873
53	0xbe54d977	-0.20786081
54	0xbcad3125	-0.021141598
55	0xbe5dab9b	-0.21647494
56	0xbe26b81a	-0.16281167
57	0xbd0e86d4	-0.03479655
58	0xbe83ff8b	-0.257809
59	0xbe33af22	-0.17547277
60	0x3e2f3fe4	0.17114216
61	0x3e080a2f	0.13285135
62	0xbe4e8c11	-0.20170619
63	0xbe71a3e1	-0.23597671
64	0x3d6d0d15	0.057873804
65	0x3e433482	0.19062999
66	0x380af642	3.313111e-05
67	0xbdd88a7b	-0.10573288
68	0xbe86a6ac	-0.26299036
69	0xbe832506	-0.25614184
70	0xbe86db9c	-0.26339424
71	0x3de17bc6	0.11009936
72	0xbe589331	-0.21149899
73	0xbe8970e4	-0.2684394
74	0xbe3bfd8e	-0.18358442
75	0xbe4c0df9	-0.19927205
76	0x3c7c323e	0.015392838
77	0x3dc89fd2	0.09796108
78	0xbe6dcae9	-0.23221935
79	0xbe963ce1	-0.29343322
80	0xbda662cf	-0.08124315
81	0xbe6adc4c	-0.22935599
82	0x3e57d07d	0.21075626
83	0x3d895684	0.06705955
84	0xbeadd64a	-0.33952552
85	0x3dd7b2f2	0.10532178
86	0x3e5c8f37	0.21539007
87	0xbe87f64d	-0.265551
88	0xbd110e69	-0.035414133
89	0xbce56596	-0.028002542
90	0x3e39eb13	0.1815608
91	0xbe81557d	-0.25260535
92	0x3b3a1b85	0.002839775
93	0xbe8d49c9	-0.27595356
94	0x3e89cafe	0.26912683
95	0xbe8a8a14	-0.2705847
96	0xbdd6aa88	-0.10481745
97	0x3b9d6305	0.004803064
98	0xbe5bef02	-0.21477893
99	0xbe1b1acd	-0.15146942
100	0x3dc3804b	0.09545954
101	0x3e7fd211	0.24982478
102	0x3e157caa	0.14598337
103	0xbdfad2ad	-0.122472145
104	0xbeb063d6	-0.3445117
105	0x3e3ca775	0.18423255
106	0x3de0b246	0.10971503
107	0x3e7a07a2	0.24416974
108	0xbe6dfb35	-0.23240359
109	0xbec3639d	-0.38161936
110	0xbe2d4424	-0.16920525
111	0xbdc23784	-0.09483245
112	0xbe7d50c2	-0.24737838
113	0x3d7b9296	0.061419092
114	0x3dc10bb4	0.0942606
115	0xbd34f584	-0.044179454
116	0xbe455b31	-0.19273068
117	0x3d409288	0.047014743
118	0x3dc08ca3	0.09401824
119	0xbdc62967	-0.096758656
120	0xbcd60cee	-0.026129212
121	0xbe87a98e	-0.26496547
122	0x3e598abf	0.21244334
123	0xbd73d2d7	-0.059527244
124	0x3e89990a	0.26874572
125	0xbcba816c	-0.022766791
126	0xbe127cca	-0.14305416
127	0xbe202082	-0.15637401
128	0xbe353f5d	-0.17699952
129	0x3e29480c	0.1653139
130	0x3d5f9903	0.054589283
131	0x3d27c1f2	0.040956445
132	0xbe79088d	-0.24319668
133	0xbd2e1f63	-0.0425104
134	0xbe8dfb0a	-0.2773059
135	0xbe18a9b6	-0.1490849
136	0xbdd1f6f7	-0.10252183
137	0xbe9fddda	-0.31223947
138	0x3bec0243	0.007202418
139	0x3e8d498f	0.27595183
140	0x3dfb7d27	0.1227973
141	0x3dd0b817	0.10191362
142	0xbe1ec2a4	-0.15503937
143	0x3e8329d4	0.2561785
144	0x3e84f264	0.2596618
145	0x3df4adfc	0.119472474
146	0x3d8d96fb	0.06913563
147	0xbd0d54d8	-0.03450474
148	0xbe93e01f	-0.28881928
149	0xbeb4a571	-0.35282472
150	0x3d71b4e7	0.059010413
151	0xbdfd196c	-0.123583645
152	0x3e0a0a07	0.13480388
153	0xbd0d729d	-0.034533132
154	0x3d1c0a9f	0.038096067
155	0x3e87119f	0.2638063
156	0x3c156d9c	0.009120371
157	0xbe45b4e3	-0.19307284
158	0xbe80f12a	-0.25183994
159	0x3e914016	0.28369206
160	0x3e514cbb	0.20439427
161	0x3d6c16ef	0.05763906
162	0x3e56565e	0.20931384
163	0xbdc4744b	-0.095924936
164	0xbe725998	-0.2366699
165	0xbd81307b	-0.06308075
166	0xbe3b142e	-0.18269417
167	0xbe24d20f	-0.16095756
168	0x3e0c476c	0.1369912
169	0x3e114741	0.14187337
170	0x3e8030b2	0.25037152
171	0x3d9958c0	0.07487631
172	0xbe63ebe9	-0.22257961
173	0xbe273420	-0.16328478
174	0x3e62657c	0.22109026
175	0xbe6dbfdd	-0.23217721
176	0xbe227aab	-0.15867107
177	0xbe800d9c	-0.25010383
178	0xbe6aea60	-0.2294097
179	0xbda16178	-0.07879919
180	0x3d57b11c	0.05265914
181	0xbe5e47bc	-0.21707052
182	0xbeb57167	-0.35438082
183	0xbe9a10d1	-0.30090955
184	0xbed7deb9	-0.4216211
185	0x3d002707	0.03128722
186	0xbe2a5c26	-0.16636714
187	0xbe9f311f	-0.31092164
188	0xbe33a1af	-0.17542146
189	0xbe3724e2	-0.17885163
190	0xbe6f0164	-0.23340374
191	0xbc907bcd	-0.017637158
192	0xbe90be85	-0.28270355
193	0xbea6f62a	-0.32609683
194	0x3d8f6c12	0.07003035
195	0x3e82083b	0.25396904
196	0x3e89a9e7	0.26887438
197	0xbe1fce00	-0.15605927
198	0x3e8c1680	0.27360916
199	0xbbf44fb7	-0.007455792
200	0xbea4a699	-0.32158354
201	0x3db1cd28	0.086817086
202	0xbe5b1c6d	-0.21397562
203	0x3dfc5196	0.12320249
204	0xbe281c4f	-0.16417049
205	0xbe97900d	-0.2960209
206	0xbe9086ea	-0.2822793
207	0x3c6c01a6	0.01440469
208	0x3e070d80	0.13188744
209	0xbe1b04bb	-0.15138523
210	0x3e41ac50	0.18913388
211	0xbe5c1345	-0.21491726
212	0xbc11ec4b	-0.008906434
213	0xbd2f0d0c	-0.04273705
214	0x3e3750a1	0.17901851
215	0xbdbbe3b6	-0.09174292
216	0xbe4cd84f	-0.2000439
217	0x3e6dae4b	0.23211019
218	0xbdaf3726	-0.085554406
219	0x3da38cbe	0.07985829
220	0x3e3f0f3d	0.18658157
221	0x3e4ce5a0	0.2000947
222	0x3e8dc440	0.2768879
223	0xbe71fa9e	-0.23630759
224	0xbdad2589	-0.08454425
225	0xbc268366	-0.010163164
226	0xbe2e4d07	-0.17021571
227	0xbc556134	-0.013023663
228	0xbe0c8228	-0.13721526
229	0x3e3016be	0.17196175
230	0xbd73f54a	-0.059560098
231	0xbddda7de	-0.10823034
232	0xbe770fda	-0.2412714
233	0x3d10f944	0.03539397
234	0xbcdbd973	-0.026837086
235	0xbe89c3c3	-0.26907167
236	0x3e3e5cb3	0.1859005
237	0xbde1e002	-0.11029054
238	0xbd873859	-0.06602544
239	0xbe7f1f65	-0.2491432
240	0xbd9f00d1	-0.077638276
241	0x3e1536f2	0.14571741
242	0x3de389cb	0.11110266
243	0xbdeef48b	-0.116677366
244	0x3c80c19b	0.015717318
245	0x3e36990c	0.1783182
246	0xbde9d932	-0.1141838
247	0x3cc5f320	0.024163783
248	0xbe1c6a15	-0.15274842
249	0x3e89f7ee	0.26946968
250	0x3dacbce1	0.08434463
251	0xbeb183b2	-0.34670788
252	0xbe76d303	-0.24103932
253	0xbe8430de	-0.25818533
254	0x3e512e80	0.20427895
255	0x3c9a057c	0.018801443

layer_1.weight f4 [512, 12]
0	0xbe4b6582	-0.19862941
1	0x3d8043ec	0.06262955
2	0xbd1e6f05	-0.038680095
3	0x3e02fab5	0.1279095
4	0xbedfb228	-0.4369061
5	0x3fdeddf4	1.7411485
6	0x3cb94c3f	0.022619365
7	0x3e6305d5	0.22170193
8	0xbea15ee3	-0.31517705
9	0xbe0de7fb	-0.13858025
10	0xbe3a90e1	-0.1821933
11	0x3ecb7300	0.39736176
12	0xbd83b9a4	-0.064318925
13	0xbe16bff3	-0.1472166
14	0x3e3fa6be	0.18715951
15	0xbe80b353	-0.25136814
16	0x3daf5722	0.08561541
17	0x3e18a6cc	0.14907378
18	0xbd4e7d5c	-0.05041252
19	0x3980852a	0.00024513277
20	0x3d75d493	0.06001718
21	0x3e248cd0	0.1606934
22	0xbde5e7ef	-0.112258784
23	0xbe6f5a57	-0.23374306
24	0x3d2afb75	0.041743714
25	0x3d27cbf4	0.04096599
26	0x3e588b3e	0.21146867
27	0xbe034eba	-0.12823
28	0xbdf27e2f	-0.11840474
29	0x3d29e64a	0.041479386
30	0xbe1c5981	-0.15268518
31	0xbdf14b12	-0.11781897
32	0x3d1aa9c0	0.037759542
33	0x3d7db580	0.06194067
34	0x3da0b2e2	0.07846619
35	0x3e78dc81	0.24302866
36	0x3e727620	0.23677874
37	0xbd52133d	-0.05128788
38	0xbe85017e	-0.259777
39	0xbc344fe0	-0.011005372
40	0xbdb33f26	-0.08752279
41	0x3dafded6	0.085874245
42	0xbd087ea5	-0.033323903
43	0xbde02e0f	-0.10946285
44	0x3e27954d	0.16365547
45	0xbe375fed	-0.17907687
46	0xbe64ee3d	-0.22356506
47	0x3e7683e0	0.24073744
48	0xbee2a4b8	-0.44266295
49	0xbd18f9ab	-0.037347477
50	0x3d15c79f	0.036567327
51	0xbde14a43	-0.110004924
52	0x3e0367e5	0.12832601
53	0xbf007384	-0.5017626
54	0xbdd6ba78	-0.10484785
55	0x3e0e03f9	0.13868703
56	0xbeac6d0f	-0.33676955
57	0xbe071b56	-0.13194022
58	0xbdd8ee5b	-0.10592338
59	0xbd61a36c	-0.055087492
60	0xbe69532e	-0.22785637
61	0xbdf4b84b	-0.119492136
62	0xbe8dea3e	-0.27717775
63	0xbd3a23ad	-0.04544418
64	0x3dd332b0	0.10312402
65	0xbd2e1ede	-0.042509906
66	0xb9e7bbe5	-0.00044199746
67	0xbe80a0b6	-0.25122613
68	0xbe72ff68	-0.23730242
69	0xbe4613d1	-0.19343497
70	0x3d352818	0.04422769
71	0xbe9365f6	-0.28788728
72	0x3e6d1561	0.23152687
73	0xbe5a0711	-0.21291758
74	0xbca601d0	-0.020264536
75	0x3c8ca7ad	0.017169798
76	0xbdfbc1d3	-0.122928284
77	0x3e7055db	0.23470251
78	0xbd47679d	-0.048682798
79	0x3bc58f04	0.0060290117
80	0x3d4141cb	0.047181886
81	0x3dfd90bc	0.123811215
82	0xbdb1c767	-0.08680611
83	0x3e80de0a	0.25169402
84	0xbe81cfb4	-0.25353777
85	0xbe5fcaa2	-0.21854642
86	0x3d695dd5	0.05697425
87	0xbe9c51d4	-0.3053118
88	0x3de81756	0.11332576
89	0xbf0531b6	-0.5202898
90	0xbd64c291	-0.055849615
91	0xbdd805b9	-0.105479665
92	0xbe37740b	-0.1791536
93	0x3e280b24	0.164105
94	0x3dfa36d7	0.12217491
95	0xbe769457	-0.24080025
96	0xbd479abf	-0.04873156
97	0x3b6121fd	0.0034352534
98	0x3e5fc9a7	0.21854268
99	0xbe841366	-0.2579605
100	0xbe600143	-0.21875481
101	0x3ccbbed5	0.02487127
102	0x3bd3feed	0.0064695985
103	0x3e35c900	0.17752457
104	0x3e849235	0.25892797
105	0xbdc0a86b	-0.09407123
106	0xbd266f42	-0.040633447
107	0x3e69c48c	0.22828883
108	0xbe5783ba	-0.21046343
109	0xbe20975d	-0.1568274
110	0x3d5ef05f	0.054428454
111	0xbe825fc8	-0.254637
112	0xbdfac509	-0.12244613
113	0x3dc8fa48	0.09813362
114	0xbddfcd3f	-0.109278195
115	0xbdae7e21	-0.08520151
116	0x3e6f117e	0.23346516
117	0xbbb9b227	-0.0056669894
118	0xbe7dcad7	-0.24784409
119	0x3d17672f	0.036963638
120	0xbd88d307	-0.06680875
121	0x3e84266d	0.25810567
122	0x3e2c4344	0.16822535
123	0xbe84ef82	-0.2596398
124	0xbd8b33ca	-0.06796987
125	0x3e0a35eb	0.1349713
126	0xbe80ba15	-0.2514197
127	0xbde1d215	-0.11026398
128	0x3dabe89d	0.08393977
129	0xbda7ecec	-0.08199486
130	0xbd20583b	-0.039146643
131	0x3e6f25ca	0.23354259
132	0xbe1d8cff	-0.15385817
133	0xbcb49d2b	-0.0220476
134	0xbe029e55	-0.12755711
135	0xbe91f4ad	-0.28506985
136	0xbe0c8292	-0.13721684
137	0xbe27d62a	-0.16390291
138	0xbe1c4ef2	-0.1526449
139	0xbe74a32b	-0.23890369
140	0x3e4650bc	0.19366735
141	0x3be70041	0.007049591
142	0xbe818164	-0.2529403
143	0xbd19ab75	-0.03751703
144	0x3e40b32d	0.1881835
145	0xbdc6484c	-0.09681758
146	0xbc9c6141	-0.019089343
147	0x3e47333c	0.19453138
148	0xbe62d141	-0.22150137
149	0x3eaab3a7	0.3334019
150	0x3e65d929	0.22446121
151	0xbe33f385	-0.17573364
152	0xbe1110a8	-0.1416651
153	0xbe16479a	-0.14675751
154	0xbe0755d4	-0.13216335
155	0xbdc3aa86	-0.09554009
156	0xbd6142e3	-0.05499543
157	0xbd962731	-0.07331694
158	0x3ec52d38	0.38511062
159	0x3e6cca5f	0.23124073
160	0xbe4a1a8b	-0.19736688
161	0x3f683ef8	0.9072108
162	0xbea9fd68	-0.33201146
163	0x3e4973f0	0.19673133
164	0xbf36b3c7	-0.7136807
165	0xbd2801d2	-0.04101736
166	0x3de5b86f	0.112168185
167	0xbe5b6d2d	-0.21428366
168	0x3e3d6f84	0.18499571
169	0x3e155270	0.14582229
170	0xbd197abe	-0.03747057
171	0xbe7875e3	-0.2426372
172	0xbe7b3f26	-0.24535808
173	0x3dc0d8d2	0.09416355
174	0x3d568163	0.052369487
175	0xbe5c4b25	-0.2151304
176	0xbe01a6f9	-0.12661351
177	0xbe45735f	-0.19282292
178	0x3e2051fb	0.15656273
179	0xbdce637a	-0.100775674
180	0x3d6c61f6	0.05771061
181	0x3d1accae	0.037792854
182	0x3e2536eb	0.16134231
183	0x3d2515ed	0.040304113
184	0xbe9264c7	-0.28592512
185	0x3fa24e66	1.2680175
186	0x3d93b23b	0.07211729
187	0xbe16e661	-0.1473632
188	0xbebb2a96	-0.36555928
189	0xbde3612b	-0.11102518
190	0x3de74abf	0.112935536
191	0x3df407f3	0.11915579
192	0xbc5fdfaf	-0.01366417
193	0xbe6ab8e2	-0.2292209
194	0xbe6fffe7	-0.23437463
195	0x3da56887	0.08076578
196	0x3e5fda94	0.21860725
197	0x3e931d76	0.28733414
198	0x3e6fd56e	0.2342126
199	0xbe52f111	-0.20599772
200	0xbd8b3316	-0.06796853
201	0xbe6a81a8	-0.22901022
202	0x3dd8bfc8	0.10583454
203	0xbe1f3d1b	-0.15550654
204	0xbe3f9c0d	-0.18711872
205	0xbe425265	-0.18976744
206	0x3c08b318	0.0083434805
207	0xbe4eb38e	-0.20185682
208	0x3e22a9ba	0.15885058
209	0xb976bcb1	-0.00023530681
210	0x3de41732	0.11137237
211	0xbdf4dc88	-0.119561255
212	0xbe036397	-0.1283096
213	0x3deb6cfd	0.11495397
214	0xbdc77835	-0.097397245
215	0x3c01a4ff	0.007912873
216	0xbd8efb31	-0.06981505
217	0x3b99cd90	0.0046936944
218	0x3edf3ffa	0.43603498
219	0x3e794f48	0.2434665
220	0x3e1385c2	0.14406493
221	0x3eb62da3	0.35581693
222	0xbef833ac	-0.48476923
223	0x3ea2d02a	0.31799442
224	0xc01195d4	-2.2747698
225	0x3d15987b	0.03652237
226	0xbdb29259	-0.0871932
227	0x3f11826a	0.5683962
228	0xbe35b4ab	-0.177447
229	0xbe2d6133	-0.1693161
230	0xbd9a1ae7	-0.075246625
231	0x3ded1a18	0.115772426
232	0xbe2744ff	-0.16334914
233	0xbe3910db	-0.18072836
234	0xbdb3c6f4	-0.08778182
235	0x3e53da2e	0.20688698
236	0xbe550c39	-0.20805444
237	0xbe068e2e	-0.13140175
238	0x3c24655f	0.010033934
239	0x3e5d2ae6	0.21598396
240	0x3e571119	0.21002616
241	0x3d27c665	0.04096069
242	0x3e64bdef	0.22338079
243	0xbc950610	-0.018191367
244	0xbe1d09eb	-0.15335815
245	0xbe7f8a2b	-0.2495505
246	0xbd47fd85	-0.04882576
247	0x3d7264ac	0.05917804
248	0x3dcb1715	0.09916512
249	0xbe84820e	-0.25880474
250	0x3e39be98	0.18139112
251	0xbd4836b3	-0.04888029
252	0xbd8b707f	-0.06808566
253	0x3de96875	0.11396877
254	0xbe60d139	-0.21954812
255	0x3e235937	0.15952002

layer_2.bias f4 [128]
0	0x3c1bafdb	0.009502376
1	0xbced1af7	-0.028943522
2	0xbcf79c15	-0.030225793
3	0xbd41731f	-0.04722893
4	0x3c3aee4a	0.011409352
5	0xbd8e1efd	-0.06939504
6	0xbd358aec	-0.04432194
7	0xbd59f380	-0.053210735
8	0xbc9fe0e2	-0.019516412
9	0xbd7a0e20	-0.061048627
10	0xbe32608c	-0.17419642
11	0xbcb8de4b	-0.022566935
12	0xbd2c846c	-0.042118475
13	0xbcc7a918	-0.024372622
14	0xbd84bfc7	-0.06481891
15	0xbd65bec9	-0.05609015
16	0x3aa483ff	0.0012551545
17	0xbbf71198	-0.007539939
18	0xbd4a9740	-0.04946065
19	0xbcf09fc7	-0.029373063
20	0xbd84b0da	-0.06479044
21	0x3b861b1b	0.0040925867
22	0xbd33c9d1	-0.04389364
23	0xbced2efb	-0.028953066
24	0xbe1d148c	-0.1533987
25	0x3c44a48a	0.01200212
26	0x3c9f4674	0.019442774
27	0x3c884c4e	0.016637947
28	0x3ca1b05a	0.019737411
29	0xbd351286	-0.04420712
30	0x3ccdecf6	0.025137406
31	0xbc869e91	-0.016433032
32	0x3c99ffcc	0.018798731
33	0x3b3bc52d	0.0028651461
34	0xbce78a44	-0.028264172
35	0xbc7b811f	-0.015350609
36	0x3dec6529	0.11542732
37	0xbd8643be	-0.065558895
38	0xbd2bedd7	-0.04197487
39	0xbcbd49ad	-0.02310642
40	0xbd265e60	-0.040617347
41	0xbd5bdda7	-0.05367818
42	0xbd2e866e	-0.04260867
43	0xbd194144	-0.037415758
44	0xbd9f7c00	-0.07787323
45	0xbd9150e7	-0.07095509
46	0xbd3a2fb6	-0.045455657
47	0xbd35614c	-0.044282243
48	0xbc911cef	-0.017713992
49	0xbd563a9f	-0.052302
50	0xbd093bc2	-0.033504255
51	0xbd3568d4	-0.044289425
52	0xbcb3bb02	-0.021939758
53	0xbc5f9149	-0.0136454785
54	0xbd0d8718	-0.034552664
55	0xbc16ad99	-0.009196662
56	0x3d43c65d	0.047796596
57	0xbce42c93	-0.027853286
58	0x3bc41fdc	0.0059852432
59	0xbd1ddb2e	-0.038539104
60	0xbc415387	-0.0117997
61	0xbcc0ed99	-0.023550795
62	0xbc87b0c6	-0.016563784
63	0xbd5483f9	-0.05188367
64	0x3c458cf1	0.012057529
65	0x3d59635a	0.053073265
66	0xbd554443	-0.052067053
67	0xbca46467	-0.020067407
68	0x3c821d84	0.015883215
69	0xbc05bde8	-0.008162953
70	0xbb647248	-0.0034858156
71	0xbc5c0a82	-0.01343024
72	0xbd5c3176	-0.053758107
73	0xbd2af707	-0.04173949
74	0x3d94abec	0.07259354
75	0xbb0834a1	-0.0020783322
76	0xbc565d8e	-0.013083829
77	0x3c41ad64	0.011821125
78	0xbd0efe9b	-0.03491078
79	0xbd4d7015	-0.050155718
80	0xbe2725f4	-0.16323072
81	0xbc69892b	-0.014253895
82	0xbd6a3715	-0.057181437
83	0xbc9e4bd6	-0.01932327
84	0xbd779819	-0.060447786
85	0xbca59979	-0.020214783
86	0xbc5d7c0f	-0.013518347
87	0xbc5ce6a8	-0.013482727
88	0xbc5e4bfc	-0.013567921
89	0xbde0916f	-0.10965239
90	0xbd37b019	-0.044845674
91	0xbd7c46f7	-0.061591115
92	0xbcfed93e	-0.031109449
93	0xbda1298d	-0.07869253
94	0xbdaacf53	-0.08340325
95	0xbc29abba	-0.010355884
96	0x3bb1a6e6	0.005421507
97	0xbd662148	-0.056184083
98	0xbd5ff91f	-0.05468094
99	0xbc89415b	-0.016754797
100	0xbd197c96	-0.03747233
101	0xbcfaad1e	-0.030600127
102	0xbd4eb868	-0.050468832
103	0xbd01fa24	-0.031732693
104	0xbbd7fe7d	-0.0065916167
105	0xbd3e0949	-0.046395574
106	0xbd613622	-0.054983266
107	0xbd86d32d	-0.06583247
108	0xbc01078a	-0.007875333
109	0xbc8999bf	-0.016796945
110	0x3c731ff1	0.014839158
111	0xbd0b09e8	-0.033944994
112	0xbccd6a34	-0.025075056
113	0xbc91c444	-0.017793782
114	0x3bf0b098	0.0073452704
115	0xbd51d01e	-0.051223867
116	0x3ce23dd9	0.027617382
117	0xbd80e7e4	-0.062942296
118	0xbd535511	-0.051594798
119	0xbd61ef2d	-0.055159736
120	0xbda4c3db	-0.08045169
121	0xbd38d90c	-0.045128867
122	0xbca3a40f	-0.01997569
123	0xbcfba404	-0.030717857
124	0x3c5ba234	0.013405371
125	0xbd7b03a6	-0.061282776
126	0xbd0e3615	-0.034719545
127	0xbcf795b8	-0.030222759

layer_2.weight f4 [128, 512]
0	0xbd3cb273	-0.04606862
1	0xbd8291b5	-0.06375448
2	0x3c8d5264	0.017251201
3	0xbd2537e4	-0.040336505
4	0x3cf7f1c7	0.030266656
5	0x3cb2f704	0.021846302
6	0xb9b0a4e4	-0.0003369219
7	0x3cab26ee	0.020892587
8	0x3c171373	0.009220946
9	0xbc9c936b	-0.019113263
10	0xb9aa0540	-0.00032428838
11	0x3cad5d9d	0.021162802
12	0x3cb35512	0.02189115
13	0xbc87dc9b	-0.016584685
14	0x3d34a956	0.044106804
15	0xbd393cb4	-0.045223907
16	0x3b9f3a46	0.0048592417
17	0x3be91bcc	0.0071139093
18	0x3ca9b4df	0.020716129
19	0xbd21ee17	-0.0395337
20	0xbad66d3b	-0.0016359458
21	0xbd53ed27	-0.051739838
22	0x3ce2b9a8	0.027676418
23	0xbccaddfa	-0.02476405
24	0x3ca1058d	0.019655967
25	0xbd539aa8	-0.051661164
26	0x3d017cfd	0.03161334
27	0xbd18908c	-0.037247226
28	0x39d300e6	0.00040245726
29	0xbd03bcf2	-0.032162614
30	0xbce0f903	-0.027462488
31	0x3cb7b426	0.022424769
32	0x3b781706	0.003785552
33	0x3d90f113	0.07077231
34	0xbc65568f	-0.013997688
35	0x3cfa689c	0.03056746
36	0x3d8240aa	0.0635999
37	0x3d25671f	0.040381547
38	0xbd29f050	-0.041488945
39	0x3c1d128e	0.009586943
40	0x3be347c0	0.0069360435
41	0x3c1320a4	0.00897995
42	0x3cd63051	0.026146086
43	0x3cf38417	0.029726071
44	0xbd20511e	-0.03913986
45	0x3d0fd147	0.03511169
46	0xbbddd386	-0.0067696003
47	0x3cb60c94	0.022222795
48	0xba930196	-0.0011215683
49	0x3c5380e9	0.012909153
50	0xbc609239	-0.013706737
51	0xbd2e0da0	-0.042493463
52	0xbd0ecc6b	-0.034862917
53	0xbc1be5b5	-0.009515216
54	0xbcda597b	-0.026653996
55	0xbcb3f50b	-0.021967432
56	0x3c192430	0.009347007
57	0xbd371734	-0.044699863
58	0x3bd9bdab	0.0066449246
59	0xbc29b1aa	-0.0103573
60	0xbcfb10c5	-0.030647645
61	0xbd40ca99	-0.047068212
62	0xbc94ca7c	-0.018162958
63	0xbcc4e65f	-0.02403563
64	0xbd4c36fb	-0.04985712
65	0xba4aa0a5	-0.00077296264
66	0x3cb06d45	0.021536479
67	0xbb580360	-0.0032960996
68	0xbd04218d	-0.03225856
69	0xbc9028f1	-0.017597647
70	0xbcb6552e	-0.022257414
71	0xbd53f8ba	-0.051750876
72	0xbca77037	-0.02043925
73	0x3c544d6b	0.012957911
74	0xbb42a971	-0.0029703046
75	0x3c88d38a	0.016702432
76	0x3cd90528	0.026491717
77	0x3ca6d539	0.020365344
78	0x3cd98159	0.026550936
79	0x3cdfb5a5	0.027308295
80	0xbd1215d5	-0.035665352
81	0x3cd1e940	0.025623918
82	0x3c6ab4dc	0.014325347
83	0xbd21897d	-0.03943776
84	0x3c5b64fa	0.013390774
85	0xba946550	-0.0011321697
86	0x3d2c093f	0.042001005
87	0xbb585824	-0.003301152
88	0xbcb0e0e0	-0.021591604
89	0x3aa62c9b	0.0012678088
90	0x3c7ebc79	0.015547865
91	0x3cbabf06	0.022796165
92	0xbccab965	-0.024746606
93	0xbd1c19a1	-0.03811038
94	0xbb275bdd	-0.0025536933
95	0xbcad5b06	-0.021161567
96	0xbd07dbd9	-0.033168647
97	0xbd406c2a	-0.046978153
98	0x3ce3dcbe	0.027815219
99	0x3c7fc8db	0.0156118525
100	0x3cf27edc	0.029601507
101	0x3b38862e	0.002815615
102	0x3c83a6ad	0.016070688
103	0x3ce6918a	0.02814557
104	0x3b1ecda3	0.0024231456
105	0xbb63859f	-0.0034717096
106	0x3cbdec63	0.023184007
107	0xbc99cde4	-0.018774934
108	0xbb89ab38	-0.004201319
109	0xbd12c2b3	-0.03583021
110	0xbc8c6fbd	-0.017143125
111	0xbc758da5	-0.014987384
112	0x3d31122b	0.043230217
113	0x3ce76e77	0.028250916
114	0xbcf6b93e	-0.030117627
115	0x3c7bb4d8	0.015362941
116	0xbba42ede	-0.00501047
117	0xbccbe148	-0.024887696
118	0xbc3ff509	-0.011716136
119	0x3aecac44	0.001805671
120	0xbc3b25bb	-0.01142257
121	0xbcadf26d	-0.021233762
122	0x3c602c4d	0.013682437
123	0xbb2ea9a7	-0.0026651414
124	0xba5cba55	-0.00084200996
125	0x3d2f16c3	0.042746317
126	0x3d34d8c8	0.04415205
127	0x3cd4e87f	0.025989769
128	0xbb8b4a5d	-0.004250808
129	0xbd1f3120	-0.03886521
130	0x3d2d146d	0.042255808
131	0xbd26275f	-0.04056489
132	0xbc58c8f1	-0.013231502
133	0xbc6a59e9	-0.014303663
134	0xbc8ecc21	-0.01743132
135	0xbd3d2ee9	-0.046187315
136	0x3c4d21c5	0.012520258
137	0xbd4f99dd	-0.050683845
138	0xbd347daa	-0.044065155
139	0xbd078dbd	-0.033094157
140	0xbcf678b8	-0.03008686
141	0x3d96a58d	0.07355795
142	0xbce7f944	-0.028317101
143	0xbcdb14c4	-0.0267433
144	0x3cb4e13b	0.022080055
145	0xbd288fac	-0.04115264
146	0x3b5307d0	0.0032200702
147	0x3ba0d033	0.004907632
148	0xbcfdcfb6	-0.030982833
149	0xbd6aa25f	-0.057283755
150	0x3a1b3345	0.00059204205
151	0x3ceed520	0.02915436
152	0xbc2d3448	-0.010571547
153	0x3d14bd24	0.03631319
154	0xbce9e6b8	-0.028552398
155	0x3c98bc46	0.018644463
156	0xbc5c4aae	-0.013445539
157	0xbc4c135b	-0.012455787
158	0x3b711655	0.0036786993
159	0xbc9c6b97	-0.019094272
160	0xbd14aec0	-0.036299467
161	0x3c9742ab	0.018464407
162	0x3ca69e21	0.020339074
163	0x3b0de3e5	0.0021650728
164	0x3ccb1b86	0.024793398
165	0xbcb8c1f4	-0.022553422
166	0xbd4e3c7b	-0.050350647
167	0x3c268ce2	0.010165425
168	0x3c1ef7e5	0.009702657
169	0xbd10620c	-0.035249755
170	0x3d319096	0.04335078
171	0xbbbb0e82	-0.0057085166
172	0xb9bc7530	-0.00035945466
173	0xbd2868ba	-0.0411155
174	0x3d14cca9	0.03632799
175	0x3d16113a	0.036637522
176	0x3cf02815	0.029315988
177	0xbd586c01	-0.052837376
178	0xbb8c4fed	-0.004281989
179	0xbc829a57	-0.015942736
180	0xbd838712	-0.06422247
181	0xba9deef5	-0.0012049364
182	0x3d39c5c9	0.04535464
183	0xbcf949a8	-0.03043063
184	0xbd35dbf6	-0.044399224
185	0x3d16a159	0.036774967
186	0x3bcc5e61	0.006236837
187	0xbcc76100	-0.024338245
188	0xbc985732	-0.018596265
189	0xbcc3ed5c	-0.023916893
190	0x3cb54743	0.022128707
191	0xbc083d4a	-0.008315394
192	0xbc764e80	-0.015033364
193	0xbd511c2f	-0.05105227
194	0x3d0ecc60	0.034862876
195	0xbc152972	-0.00910412
196	0xbc8c8ef6	-0.017158013
197	0xbcc85f7e	-0.024459597
198	0xbd0ea2fd	-0.034823406
199	0xbd002c94	-0.031292513
200	0x3ca89941	0.02058089
201	0x3d19240b	0.03738789
202	0xba2c8b8c	-0.00065820734
203	0xbcc532fb	-0.024072161
204	0x3d5d48f2	0.054024644
205	0xbd2c2a72	-0.042032667
206	0xba451df8	-0.00075194193
207	0x3bc3132a	0.0059532123
208	0xbd56937e	-0.052386753
209	0x3bed6c54	0.0072455797
210	0xbbdc5020	-0.006723419
211	0xbd54b6e0	-0.051932216
212	0xbc059bf3	-0.008154857
213	0xbc07d816	-0.008291265
214	0xbb2bafba	-0.002619727
215	0x3d7513ec	0.059833452
216	0x3d1c46be	0.038153403
217	0x3d2bb1f5	0.04191776
218	0xbd23617b	-0.039887886
219	0xb985aa50	-0.0002549463
220	0x3cf57eca	0.029967684
221	0x3ca0b0e6	0.019615602
222	0x3c6e4b8b	0.014544378
223	0xbd2c8b93	-0.042125296
224	0x3c40edc5	0.011775439
225	0x3b74d19d	0.0037356385
226	0x3c8d5ad7	0.01725523
227	0x3d287f4b	0.04113702
228	0xbceaa4b2	-0.028642986
229	0xbd2be8a5	-0.041969914
230	0x3baca1b5	0.0052683004
231	0xba9b2181	-0.0011835546
232	0x3cc78894	0.024357118
233	0xbba01a6d	-0.0048859627
234	0xbc5efd3d	-0.013610181
235	0xbd010b04	-0.031504646
236	0x3c9ee87d	0.019397968
237	0x3d9075d9	0.07053728
238	0xba267fb0	-0.00063514244
239	0x3cbd00d9	0.023071693
240	0xba8619ae	-0.0010231042
241	0x3d0c9430	0.03432101
242	0x3cca2268	0.02467461
243	0x3adc0b51	0.001678804
244	0x3c76a23a	0.015053326
245	0xbcbdb8e0	-0.023159444
246	0xbd0795b9	-0.03310177
247	0xbcc973f4	-0.024591424
248	0x3c866875	0.01640723
249	0xbc9708ee	-0.018436875
250	0x3ce2259b	0.027605822
251	0x3ab989f4	0.0014155493
252	0xbb9b4bea	-0.0047392743
253	0xbcba28eb	-0.02272459
254	0xbc933ee9	-0.017974334
255	0xbd78bfd5	-0.06072982

layer_3.bias f4 [64]
0	0xbe183ec4	-0.14867693
1	0xbd86f342	-0.065893665
2	0x3d851d1e	0.06499694
3	0xbe260c0b	-0.16215532
4	0xbdc89410	-0.09793866
5	0xbe02ef6c	-0.12786645
6	0xbda73eb1	-0.08166254
7	0xbd98182f	-0.07426488
8	0x3ea087cc	0.31353605
9	0xbd764f51	-0.060134236
10	0xbdda7ea4	-0.10668686
11	0xbdb9f5d6	-0.090800926
12	0xbd114b8f	-0.03547245
13	0xbc7d7eed	-0.015472156
14	0xbe0b2347	-0.13587676
15	0xbc834941	-0.016026141
16	0xbde043d1	-0.10950435
17	0xbc32674a	-0.010888884
18	0x3caf8901	0.021427633
19	0x3b3bef56	0.002867659
20	0x3daa5ecf	0.083188646
21	0xbcd7216a	-0.02626105
22	0x3b6fce3a	0.0036591426
23	0x3d062ff5	0.03276058
24	0xbe697e70	-0.22802138
25	0xbdfb517a	-0.122714
26	0xbe346f8d	-0.17620678
27	0xbd57553f	-0.05257153
28	0xbd71881c	-0.058967695
29	0xbdc1799c	-0.09447023
30	0xbd490a8a	-0.049082316
31	0xbdc857ad	-0.09782348
32	0xbd429266	-0.047502898
33	0xbd16b79e	-0.036796205
34	0x3c3aa379	0.011391514
35	0xbd5ff561	-0.05467737
36	0xbd04b040	-0.032394648
37	0xbe1b74ca	-0.1518127
38	0xbcd9897a	-0.026554812
39	0xbe1d57e9	-0.15365566
40	0xbcde2eec	-0.027121983
41	0xbda2085d	-0.079117514
42	0xbe0cd0c3	-0.13751511
43	0x3d81a5ee	0.06330477
44	0xbd7ecfcd	-0.062209893
45	0xbd75c3a0	-0.060001016
46	0xbd13470f	-0.03595644
47	0xbddcfaee	-0.107900485
48	0xbdd48b9c	-0.10378191
49	0x3d33e0cf	0.043915566
50	0xbb707965	-0.003669345
51	0x3e0ff56b	0.14058463
52	0xbd0396a2	-0.032126077
53	0xbdb8ba85	-0.09019951
54	0xbc79ae13	-0.015239256
55	0xbe293f2a	-0.16528001
56	0xbe150f8b	-0.1455671
57	0x3c02e1c0	0.007988393
58	0xbb5679e1	-0.0032726454
59	0x3d14b6b7	0.036307063
60	0x3d97422b	0.073856674
61	0xbd2c8775	-0.04212137
62	0xbe0778ef	-0.13229726
63	0x3da8342e	0.082130775

layer_3.weight f4 [64, 128]
0	0xbd9ad625	-0.07560376
1	0xbd22d0e5	-0.03975
2	0xbbc6f0af	-0.006071172
3	0xbd837240	-0.06418276
4	0x3d8a845e	0.06763528
5	0xbdbb96e3	-0.09159639
6	0xbd658f61	-0.05604494
7	0xbb082859	-0.0020776002
8	0xbd47b01e	-0.048751943
9	0xbca845ba	-0.02054106
10	0xbd46d846	-0.0485461
11	0x3cb4ac0f	0.0220547
12	0x3d38997b	0.045068245
13	0x3d4f00c2	0.050537832
14	0x3da3625f	0.07977747
15	0x3d6ec8df	0.058297034
16	0x3d909603	0.070598625
17	0xbcda8b7b	-0.026677838
18	0xbd997560	-0.07493091
19	0x3db2f23a	0.08737607
20	0x3d8d3e1c	0.06896612
21	0x3da202ba	0.07910676
22	0xbca06c0c	-0.01958277
23	0x3d77373a	0.060355403
24	0xbd06c88a	-0.032906093
25	0x3cca55ea	0.02469917
26	0x3d240b2c	0.040049717
27	0xbc7fc169	-0.015610077
28	0x3d6ea075	0.058258492
29	0xbd198006	-0.03747561
30	0xbc016b5e	-0.0078991335
31	0xbd56a649	-0.052404676
32	0xbd33d2a7	-0.043902066
33	0xbce22811	-0.027606996
34	0x3bdaed93	0.006681153
35	0x3c84f004	0.01622773
36	0xb8ac01be	-8.2019236e-05
37	0xbcf48e70	-0.029853076
38	0xbd323ae2	-0.043513186
39	0x3d5fde1b	0.054655176
40	0xbd4b5b77	-0.049647775
41	0xbd0f47fb	-0.034980755
42	0xbc55abbf	-0.013041436
43	0xbbc09278	-0.0058768354
44	0xbd610202	-0.054933555
45	0xbd9e7b6d	-0.07738385
46	0xbd61bb8f	-0.05511051
47	0x3d5122ca	0.051058568
48	0x3daafb94	0.08348766
49	0xbd202892	-0.03910119
50	0x3cc81a94	0.024426736
51	0xbbcb8cd2	-0.0062118554
52	0xbb81803d	-0.003952055
53	0x3d8b2f31	0.067961104
54	0xbdff5f16	-0.12469308
55	0x3cd84924	0.026402064
56	0xbd9b8627	-0.07593947
57	0x3d4f7593	0.050649237
58	0xbd71ddd4	-0.059049442
59	0x3d9aa2d7	0.075505905
60	0x3d08fbea	0.03344337
61	0xbd97d9c1	-0.0741458
62	0x3d6bf8c3	0.057610285
63	0x3cff23b8	0.031144962
64	0xbc306c26	-0.010767972
65	0xbd96b83b	-0.07359358
66	0xbd82fe09	-0.063961096
67	0xba40d8c8	-0.00073565217
68	0xbd89cb5d	-0.067282416
69	0x3d32786c	0.043571874
70	0x3d701b8e	0.05862003
71	0x3ce831a6	0.028343987
72	0xbca4ed8b	-0.0201328
73	0x3d488b9c	0.048961267
74	0xbdd993e0	-0.10623908
75	0x3c8c2857	0.01710908
76	0x3da84d9c	0.08217928
77	0x3bc67cfb	0.0060573793
78	0xbd55cd8e	-0.052197985
79	0x3c80b853	0.015712893
80	0xbdaa1379	-0.08304495
81	0xbd892abb	-0.06697603
82	0xbd7a893f	-0.061166044
83	0x3c4ccdfd	0.012500283
84	0xbca02484	-0.019548662
85	0xbd2c1978	-0.042016476
86	0xbdb6b79d	-0.0892174
87	0x3db4b5d5	0.08823744
88	0xbd019706	-0.031638168
89	0xbc89e104	-0.016830929
90	0xbd792a03	-0.06083108
91	0x3d10dd8a	0.035367526
92	0xbb72c7db	-0.0037045393
93	0xbb2a5a75	-0.0025993858
94	0x3d1fe8e8	0.039040476
95	0x3d823f4d	0.0635973
96	0xbcead013	-0.02866367
97	0xbd6011a3	-0.05470432
98	0xbc9c41c2	-0.019074325
99	0x3d2c967f	0.04213571
100	0xbc5eb736	-0.013593486
101	0x3d15d7d9	0.0365828
102	0x3d80081e	0.06251548
103	0x3d75a23b	0.05996917
104	0xbd82b5da	-0.06382342
105	0xbca9ca6c	-0.020726405
106	0x3ce0b9f7	0.027432425
107	0x3d9b01dc	0.07568714
108	0x3cc54e91	0.024085315
109	0x3c66f1a4	0.014095698
110	0x3d46e7d2	0.048560925
111	0x3c51e5b8	0.012811117
112	0xbd8612c3	-0.06546547
113	0xbc65f3a8	-0.014035143
114	0xbbec4d40	-0.0072113574
115	0xbd855dfd	-0.065120675
116	0xbcace3dd	-0.021104747
117	0x3cf0782c	0.029354177
118	0xbd10269f	-0.035193082
119	0xba8098b8	-0.0009811139
120	0xbbd5918d	-0.006517595
121	0x3c9d9d64	0.019240089
122	0xbdb94bdf	-0.090476744
123	0x3cde12ec	0.027108632
124	0xbcd43446	-0.025903832
125	0x3d38f2a3	0.04515327
126	0x3d56f277	0.052477326
127	0xbd9e9108	-0.07742506
128	0xbd076271	-0.033052865
129	0x3d2e7ac9	0.042597566
130	0xbda71ff3	-0.08160391
131	0x3d31cc8a	0.043407954
132	0x3d2d0657	0.042242374
133	0xbbdc14ec	-0.0067163613
134	0xbd8f605f	-0.07000803
135	0x3d8bb5f2	0.06821813
136	0xbdb2be7e	-0.0872774
137	0x3d4f4dd2	0.050611325
138	0x3d9e9cc8	0.077447474
139	0x3dafbcf7	0.08580964
140	0x3cfc5a23	0.0308047
141	0xbd3f538d	-0.04671054
142	0x3daab1dd	0.08334706
143	0x3da2710b	0.079317175
144	0x3ce13673	0.027491784
145	0xbd560a91	-0.05225617
146	0x3b57f52f	0.0032952537
147	0xbd9144a5	-0.07093171
148	0xbd94869b	-0.072522365
149	0x3d833097	0.06405752
150	0xbd3672bc	-0.044543013
151	0xbd4d3792	-0.050101824
152	0xbbe5bc07	-0.00701094
153	0x3d282394	0.041049555
154	0xbd1bb47c	-0.03801392
155	0xbd8eb2b6	-0.0696768
156	0x3d4bd768	0.049765974
157	0x3cc2744f	0.0237371
158	0x3d5bfef7	0.05370995
159	0x3da10b63	0.078635
160	0xbd3f8d5b	-0.046765666
161	0x3c89cfa8	0.016822651
162	0xbb44f57c	-0.0030053547
163	0x3d473b7b	0.04864071
164	0x3c0cb606	0.00858832
165	0xbd1b9a84	-0.037989154
166	0xbcfe2b0f	-0.031026391
167	0xbd9bcd0d	-0.0760747
168	0x3d75fe25	0.060056824
169	0x3d22682d	0.03965013
170	0xbc02eac9	-0.007990547
171	0x3d5c7584	0.05382301
172	0x3d7c7e94	0.06164415
173	0xbd18d101	-0.037308697
174	0xbc606fea	-0.013698557
175	0xbd866523	-0.06562259
176	0x3ca392f4	0.019967534
177	0xbcc2eee4	-0.023795553
178	0x3db14da3	0.08657386
179	0x3d7c6b79	0.06162593
180	0x3d43c9cf	0.04779988
181	0xbc97c280	-0.018525362
182	0xbd1db415	-0.038501818
183	0xbd5e3934	-0.054253772
184	0xbdba1886	-0.09086709
185	0x3d634031	0.05548114
186	0xbd20024f	-0.0390647
187	0x3cd325bc	0.02577483
188	0x3d62d7e8	0.055381685
189	0xbdad5da5	-0.08465127
190	0xbb3b2d44	-0.0028560916
191	0xbd960d13	-0.073267125
192	0xbd2bcee7	-0.041945364
193	0xbdf53866	-0.11973648
194	0x3d2c46a6	0.042059563
195	0x3d299708	0.0414038
196	0x3d65a566	0.05606594
197	0x3bf79da6	0.007556635
198	0x3daedb32	0.08537902
199	0x3cee2a97	0.029073043
200	0x3b70996b	0.0036712538
201	0x3ce1b710	0.027553111
202	0xbc6815b0	-0.014165327
203	0xbca1c262	-0.01974601
204	0x3da62e72	0.081143275
205	0xbd9d08ce	-0.07667695
206	0x3c2fbb4b	0.0107258065
207	0x3cccc316	0.024995368
208	0xbc539bc1	-0.012915553
209	0xbcf3f134	-0.0297781
210	0x3db4f19c	0.08835146
211	0xbd244f10	-0.040114462
212	0xbd58c5d3	-0.052923035
213	0xbbf0003e	-0.0073242476
214	0xbd871736	-0.06596224
215	0x3d760321	0.060061578
216	0x3dabf6b3	0.083966635
217	0xbda6df3c	-0.08148047
218	0x3ceeb7a9	0.02914031
219	0xbc24d3e4	-0.010060284
220	0x3d03153f	0.032002684
221	0xbd0b910b	-0.03407387
222	0x3d07eff6	0.03318783
223	0xbd596a5d	-0.05307995
224	0xbd61d41f	-0.055133935
225	0x3cd9c372	0.026582453
226	0xbdb01a7e	-0.08598803
227	0xbd05c507	-0.032658603
228	0xbc43e2f4	-0.011955965
229	0x3d63db75	0.055629212
230	0x3d1ebb21	0.03875268
231	0x3d2c1a0e	0.042017035
232	0x3cc34ea3	0.023841208
233	0xbc7ede3c	-0.0155559145
234	0x3cb394f0	0.021921605
235	0x3cbf86da	0.023379732
236	0xbc88a60d	-0.016680742
237	0xbd821963	-0.063524984
238	0xbd87904e	-0.06619321
239	0xbc7fe049	-0.015617439
240	0xbd0d7f17	-0.03454503
241	0x3c7294cd	0.014805985
242	0x3d8a0fdf	0.067413084
243	0x3d29801d	0.041381944
244	0x3cf661c1	0.03007591
245	0x3b89e71a	0.0042084577
246	0xbc2793fb	-0.010228152
247	0x3c394579	0.0113080675
248	0x3d21d58d	0.0395103
249	0x3d2d9e01	0.042387012
250	0xbd2b5bca	-0.041835584
251	0xbd4d19fb	-0.050073605
252	0xbd8d1254	-0.068882614
253	0xbd28cdbc	-0.04121183
254	0xbbd66628	-0.0065429397
255	0x3d9f6df3	0.07784643

layer_out.bias f4 [4]
0	0xbe28cf53	-0.16485338
1	0xbdde462b	-0.10853227
2	0x3e85b2cf	0.26112983
3	0x3cc3dfc6	0.023910414

layer_out.weight f4 [4, 64]
0	0xbd4b1e39	-0.04958937
1	0x3bd2256a	0.0064131515
2	0x3bcc4155	0.006233374
3	0xbceb08b8	-0.02869068
4	0x3d9aeb52	0.07564415
5	0x3d1ee2f2	0.03879065
6	0x3d6ec47c	0.05829285
7	0xbdaef8a3	-0.085435174
8	0xbd769db0	-0.060208976
9	0x3d63a9af	0.055581745
10	0x3c64fc72	0.013976203
11	0xbd7f619b	-0.062348943
12	0x3d85f760	0.06541324
13	0xbd2b0a9e	-0.041758172
14	0xbd0456f6	-0.032309495
15	0x3db30ba4	0.08742455
16	0x3d8055a6	0.06266336
17	0x3ca0717f	0.01958537
18	0xbd94b879	-0.07261748
19	0xbcb0395a	-0.021511722
20	0xbdacc383	-0.084357284
21	0x3d8afe46	0.0678678
22	0x3d2ba982	0.041909702
23	0x3d5a7937	0.053338256
24	0x3d26d054	0.04072602
25	0x3c99daab	0.018781027
26	0xbd4956b5	-0.049154956
27	0x3d4cd871	0.050011102
28	0xbd5fa9f8	-0.054605454
29	0xbd8f5e55	-0.07000414
30	0xbd93f60e	-0.072246656
31	0xbdfbe1b7	-0.12298911
32	0xbd0834cc	-0.033253476
33	0xbbe2a6f0	-0.006916873
34	0xbcff2321	-0.03114468
35	0xbd645df6	-0.05575367
36	0xb92432f5	-0.00015659242
37	0xbbc88d3d	-0.0061203525
38	0x3d02323c	0.03178619
39	0x3cf0aa81	0.029378178
40	0xbe08081a	-0.1328434
41	0xbcbc3894	-0.022976197
42	0xbc013012	-0.007884996
43	0xbb3fac9f	-0.0029247177
44	0xbd81a5c9	-0.06330449
45	0xbdd3f443	-0.103493236
46	0xbd9a1562	-0.0752361
47	0x3bdf3bcb	0.006812548
48	0x3dc2ff7a	0.095213845
49	0x3c125b39	0.008932882
50	0xbcf7ee7a	-0.030265082
51	0xbe149635	-0.14510424
52	0xbea96e2a	-0.3309186
53	0xbd9616e0	-0.07328582
54	0x3dc573f5	0.09641258
55	0xbc8aec35	-0.016958335
56	0xbc43827f	-0.011932968
57	0x3d543107	0.05180457
58	0x3d85c4f0	0.065317035
59	0xbd69f61f	-0.057119485
60	0xbd832f21	-0.064054735
61	0x3dc7b283	0.09750845
62	0xbd261f30	-0.040557086
63	0xbda88083	-0.08227637
64	0xbd3af5c8	-0.04564455
65	0xbca4e1ef	-0.020127265
66	0xbd0f9090	-0.035049975
67	0xbd0f6243	-0.03500582
68	0x3d4455ac	0.047933266
69	0xbc88ddc2	-0.016707305
70	0x3c8aaaad	0.016927088
71	0x3c593cee	0.013259156
72	0xbda268b9	-0.079301305
73	0x3cdbfe33	0.02685461
74	0x3cad01ce	0.021119025
75	0xbdcfbae5	-0.10143069
76	0x3d623f48	0.05523613
77	0x3cfa4f1e	0.030555304
78	0xbd80dfcf	-0.06292688
79	0x3da4faf3	0.08055677
80	0x3d35fbd3	0.04442961
81	0x3d6b51a3	0.0574509
82	0xbdbf4c9f	-0.09340786
83	0xbded44ec	-0.115854114
84	0xbc90bf0a	-0.01766922
85	0xbd887f26	-0.06664877
86	0xbd413f48	-0.04717949
87	0x3e2bef8a	0.16790596
88	0x3dd47d72	0.10375489
89	0x3cab0c3c	0.020879857
90	0xbc0d6095	-0.008628984
91	0xbc8fea52	-0.017567787
92	0xbe0cde70	-0.13756728
93	0xbd8f36c8	-0.069928706
94	0xbdae55e3	-0.08512475
95	0x3d2e725a	0.042589523
96	0xbd95978e	-0.073042974
97	0xbc4c90b6	-0.012485674
98	0xbd2c8781	-0.042121414
99	0xbbe96c40	-0.0071235
100	0x3d01af93	0.03166158
101	0x3baa2585	0.005192461
102	0xb9bd53ab	-0.00036111227
103	0x3b91f40f	0.004454143
104	0xbe0378d3	-0.1283906
105	0xba8fba6c	-0.0010965592
106	0xbb93b13f	-0.0045072134
107	0x3d314c32	0.043285556
108	0xbc9df11b	-0.019280007
109	0xbcd29b5f	-0.025708852
110	0x3d1b1bfd	0.03786849
111	0xbde8db5b	-0.11369964
112	0x3cb974ca	0.022638697
113	0x3d2c944c	0.042133614
114	0xbcf72143	-0.030167228
115	0xbda14adc	-0.078756064
116	0xbd522b55	-0.051310856
117	0xbda080ba	-0.07837053
118	0x3cb827e7	0.022479964
119	0xbc3c23d0	-0.011483148
120	0xbca4df43	-0.02012599
121	0x3dbc9d95	0.09209744
122	0x3d3b841f	0.045780297
123	0xbd140d3d	-0.036145438
124	0xbdca4bf0	-0.09877765
125	0x3d62adff	0.055341717
126	0xb9a46862	-0.0003135829
127	0xbd275d52	-0.04086048
128	0xbd834cb5	-0.06411115
129	0x3d8c5383	0.06851866
130	0x3d87c1b1	0.066287406
131	0xbd9c786a	-0.07640155
132	0x3d9d7e6d	0.076901294
133	0xbca1be90	-0.019744188
134	0x3d32534a	0.043536462
135	0x3d7e2a9f	0.062052365
136	0x3db56f2f	0.08859097
137	0x3d738b2a	0.05945889
138	0xbda211bc	-0.07913539
139	0x3d09574b	0.033530515
140	0x3b50b9be	0.0031848992
141	0x3dad6da7	0.0846818
142	0xbd2963c6	-0.041354917
143	0x3ddd3a57	0.10802143
144	0x3ddba409	0.107246466
145	0x3cb9b127	0.02266748
146	0xbb2eeeff	-0.0026692746
147	0xbd515918	-0.051110357
148	0x3c4881c6	0.012237972
149	0xbde125da	-0.10993548
150	0x3d62cea2	0.05537284
151	0xbddbadb1	-0.107264884
152	0xbd8f4bb2	-0.069968596
153	0xbd5d90c6	-0.054093145
154	0xbcc37ea0	-0.02386409
155	0x3d80b527	0.06284552
156	0xbdbe112d	-0.0928062
157	0xbd67b969	-0.056573305
158	0xbe0201c1	-0.12695982
159	0x3d0004a5	0.03125443
160	0xbd75670c	-0.059912726
161	0xbb910ea4	-0.004426794
162	0xbb9459a3	-0.004527287
163	0xbcb146e8	-0.021640256
164	0x3da13ce2	0.078729406
165	0x3d7caf0f	0.061690386
166	0x3b918d96	0.004441927
167	0xbd9dcb1a	-0.07704754
168	0x393c2430	0.00017942558
169	0xbde510eb	-0.111848675
170	0xbd247e66	-0.040159605
171	0x3cf5898e	0.029972818
172	0xbba5a526	-0.0050550876
173	0xbc079551	-0.008275346
174	0x3c37b2d9	0.011212074
175	0xbd4e715f	-0.050401088
176	0xbd9302ae	-0.071782455
177	0xbd39b6f7	-0.045340504
178	0xbce21f82	-0.027602915
179	0xbda20781	-0.079115875
180	0xbced734b	-0.02898564
181	0xbc886060	-0.016647518
182	0x3d57b33a	0.05266116
183	0x3c88ffb9	0.0167235
184	0x3dbbf52f	0.091776244
185	0x3d7af5b1	0.061269466
186	0xbea47fd9	-0.3212879
187	0x3d4a2a96	0.04935702
188	0xbd343839	-0.04399893
189	0xbc388f90	-0.011264697
190	0xbcb6d91e	-0.022320326
191	0xbd025ada	-0.031824924
192	0xbdf14d34	-0.117823035
193	0xbd518303	-0.051150333
194	0xbd32505b	-0.043533664
195	0x3c754ea2	0.014972361
196	0x3cdad21d	0.026711518
197	0x3c7c9121	0.015415461
198	0x3cdfb516	0.027308028
199	0x3c1c2a9e	0.009531645
200	0xbce7fa8e	-0.028317716
201	0xb9c795b5	-0.00038067778
202	0xbe29603b	-0.16540615
203	0xbe125ecc	-0.14293975
204	0xbcb385ac	-0.021914326
205	0x3d2ab7bb	0.041679125
206	0x3db9ac8a	0.09066112
207	0x3dabd2bf	0.08389806
208	0xbccb87d3	-0.02484504
209	0x3cc704a5	0.024294207
210	0x3b6cdaa6	0.0036141067
211	0xbd83722f	-0.06418263
212	0x3a86a036	0.0010271135
213	0xbe32be77	-0.17455469
214	0x3ca9d546	0.02073158
215	0x3bb38fdb	0.0054797954
216	0xbd9b242c	-0.075752586
217	0x3d3afb8e	0.045650057
218	0xbd0ae70b	-0.033911746
219	0xbd5dd99f	-0.054162618
220	0xbd4e7834	-0.050407603
221	0xbe8076d5	-0.25090662
222	0x3db87cff	0.09008216
223	0x3c8f692d	0.017506206
224	0xbd8cb2dd	-0.06870053
225	0xbd0992d1	-0.03358728
226	0x3c4f88a6	0.012666857
227	0xbc114dde	-0.008868663
228	0x3d33da22	0.0439092
229	0x3d1820d4	0.037140682
230	0xbd5e098d	-0.054208327
231	0xbcbaa1f7	-0.022782309
232	0xbe26eb79	-0.16300763
233	0xbd80f7ed	-0.06297288
234	0x3c91c2ac	0.017793022
235	0x3dabae6e	0.08382879
236	0xbe3e762b	-0.18599765
237	0xbd41095a	-0.04712806
238	0xbc192d95	-0.0093492465
239	0xbcd20b2a	-0.025640089
240	0x3cbf32a2	0.023339573
241	0xbdbc53de	-0.09195684
242	0xbac500b0	-0.0015030112
243	0x3d0449bd	0.032296885
244	0xbacdf943	-0.0015714545
245	0xbd5645cd	-0.05231266
246	0x3da30603	0.07960131
247	0xbb4e34aa	-0.0031464496
248	0xbe007abe	-0.12546822
249	0xbdcf6925	-0.101274766
250	0xbe849bb0	-0.2590003
251	0x3d11aaa3	0.035563122
252	0xbd02565c	-0.03182064
253	0x3b9993cd	0.0046868087
254	0xbdbddef5	-0.09271041
255	0xbde30ff5	-0.11087028
